# YOLOv8n Varroa placement ablation: fixed-width BiFPN + KVCA before P2/P3 Detect heads.

nc: 1
scales:
  n: [0.33, 0.25, 1024]
  s: [0.33, 0.50, 1024]
  m: [0.67, 0.75, 768]
  l: [1.00, 1.00, 512]
  x: [1.00, 1.25, 512]

backbone:
  - [-1, 1, Conv, [64, 3, 2]]
  - [-1, 1, Conv, [128, 3, 2]]
  - [-1, 3, C2f, [128, True]]
  - [-1, 1, Conv, [256, 3, 2]]
  - [-1, 6, RepC2f, [256, True]]
  - [-1, 1, Conv, [512, 3, 2]]
  - [-1, 6, RepC2f, [512, True]]
  - [-1, 1, Conv, [1024, 3, 2]]
  - [-1, 3, RepC2f, [1024, True]]
  - [-1, 1, SPPF, [1024, 5]]

head:
  - [2, 1, Conv, [256, 1, 1]]
  - [4, 1, Conv, [256, 1, 1]]
  - [6, 1, Conv, [256, 1, 1]]
  - [9, 1, Conv, [256, 1, 1]]

  - [13, 1, ConvTranspose, [256, 2, 2]]
  - [[12, 14], 1, WeightedAdd, [2]]
  - [-1, 3, RepC2f, [256]]
  - [-1, 1, ConvTranspose, [256, 2, 2]]
  - [[11, 17], 1, WeightedAdd, [2]]
  - [-1, 3, RepC2f, [256]]
  - [-1, 1, ConvTranspose, [256, 2, 2]]
  - [[10, 20], 1, WeightedAdd, [2]]
  - [-1, 3, C2f, [256]]             # 22-P2 output

  - [-1, 1, Conv, [256, 3, 2]]
  - [[11, 19, 23], 1, WeightedAdd, [3]]
  - [-1, 3, RepC2f, [256]]          # 25-P3 output
  - [-1, 1, Conv, [256, 3, 2]]
  - [[12, 16, 26], 1, WeightedAdd, [3]]
  - [-1, 3, RepC2f, [256]]          # 28-P4 output
  - [-1, 1, Conv, [256, 3, 2]]
  - [[13, 29], 1, WeightedAdd, [2]]
  - [-1, 3, RepC2f, [256]]          # 31-P5 output

  - [22, 1, KVCompressedAttention, [256, 4, 8, dwconv]]
  - [25, 1, KVCompressedAttention, [256, 4, 4, dwconv]]

  - [[32, 33, 28, 31], 1, Detect, [nc]]
